…
2026-05-07 13:11:50,399 - /scratch/x3397a09/Amphion/models/base/base_trainer.py[line:176] - INFO: Building dataset done in 2.92ms
INFO:/scratch/x3397a09/Amphion/ckpts/vevo/fvq8192/checkpoint/train.log:Building dataset done in 2.92ms
2026-05-07 13:11:50,400 - /scratch/x3397a09/Amphion/models/base/base_trainer.py[line:183] - INFO: Building model...
INFO:/scratch/x3397a09/Amphion/ckpts/vevo/fvq8192/checkpoint/train.log:Building model...
2026-05-07 13:11:51,127 - /scratch/x3397a09/Amphion/models/base/base_trainer.py[line:188] - DEBUG: RepCodec(
  (encoder): Sequential(
    (0): VocosBackbone(
      (embed): Conv1d(1024, 384, kernel_size=(7,), stride=(1,), padding=(3,))
      (norm): LayerNorm((384,), eps=1e-06, elementwise_affine=True)
      (convnext): ModuleList(
        (0-11): 12 x ConvNeXtBlock(
          (dwconv): Conv1d(384, 384, kernel_size=(7,), stride=(1,), padding=(3,), groups=384)
          (norm): LayerNorm((384,), eps=1e-06, elementwise_affine=True)
          (pwconv1): Linear(in_features=384, out_features=2048, bias=True)
          (act): GELU(approximate='none')
          (pwconv2): Linear(in_features=2048, out_features=384, bias=True)
        )
      )
      (final_layer_norm): LayerNorm((384,), eps=1e-06, elementwise_affine=True)
    )
    (1): Linear(in_features=384, out_features=1024, bias=True)
  )
  (decoder): Sequential(
    (0): VocosBackbone(
      (embed): Conv1d(1024, 384, kernel_size=(7,), stride=(1,), padding=(3,))
      (norm): LayerNorm((384,), eps=1e-06, elementwise_affine=True)
      (convnext): ModuleList(
        (0-11): 12 x ConvNeXtBlock(
          (dwconv): Conv1d(384, 384, kernel_size=(7,), stride=(1,), padding=(3,), groups=384)
          (norm): LayerNorm((384,), eps=1e-06, elementwise_affine=True)
          (pwconv1): Linear(in_features=384, out_features=2048, bias=True)
          (act): GELU(approximate='none')
          (pwconv2): Linear(in_features=2048, out_features=384, bias=True)
        )
      )
      (final_layer_norm): LayerNorm((384,), eps=1e-06, elementwise_affine=True)
    )
    (1): Linear(in_features=384, out_features=1024, bias=True)
  )
  (quantizer): ResidualVQ(
    (quantizers): ModuleList(
      (0): FactorizedVectorQuantize(
        (in_project): Conv1d(1024, 8, kernel_size=(1,), stride=(1,))
        (out_project): Conv1d(8, 1024, kernel_size=(1,), stride=(1,))
        (codebook): Embedding(8192, 8)
      )
    )
  )
)
DEBUG:/scratch/x3397a09/Amphion/ckpts/vevo/fvq8192/checkpoint/train.log:RepCodec(
  (encoder): Sequential(
    (0): VocosBackbone(
      (embed): Conv1d(1024, 384, kernel_size=(7,), stride=(1,), padding=(3,))
      (norm): LayerNorm((384,), eps=1e-06, elementwise_affine=True)
      (convnext): ModuleList(
        (0-11): 12 x ConvNeXtBlock(
          (dwconv): Conv1d(384, 384, kernel_size=(7,), stride=(1,), padding=(3,), groups=384)
          (norm): LayerNorm((384,), eps=1e-06, elementwise_affine=True)
          (pwconv1): Linear(in_features=384, out_features=2048, bias=True)
          (act): GELU(approximate='none')
          (pwconv2): Linear(in_features=2048, out_features=384, bias=True)
        )
      )
      (final_layer_norm): LayerNorm((384,), eps=1e-06, elementwise_affine=True)
    )
    (1): Linear(in_features=384, out_features=1024, bias=True)
  )
  (decoder): Sequential(
    (0): VocosBackbone(
      (embed): Conv1d(1024, 384, kernel_size=(7,), stride=(1,), padding=(3,))
      (norm): LayerNorm((384,), eps=1e-06, elementwise_affine=True)
      (convnext): ModuleList(
        (0-11): 12 x ConvNeXtBlock(
          (dwconv): Conv1d(384, 384, kernel_size=(7,), stride=(1,), padding=(3,), groups=384)
          (norm): LayerNorm((384,), eps=1e-06, elementwise_affine=True)
          (pwconv1): Linear(in_features=384, out_features=2048, bias=True)
          (act): GELU(approximate='none')
          (pwconv2): Linear(in_features=2048, out_features=384, bias=True)
        )
      )
      (final_layer_norm): LayerNorm((384,), eps=1e-06, elementwise_affine=True)
    )
    (1): Linear(in_features=384, out_features=1024, bias=True)
  )
  (quantizer): ResidualVQ(
    (quantizers): ModuleList(
      (0): FactorizedVectorQuantize(
        (in_project): Conv1d(1024, 8, kernel_size=(1,), stride=(1,))
        (out_project): Conv1d(8, 1024, kernel_size=(1,), stride=(1,))
        (codebook): Embedding(8192, 8)
      )
    )
  )
)
2026-05-07 13:11:51,129 - /scratch/x3397a09/Amphion/models/base/base_trainer.py[line:189] - INFO: Building model done in 727.56ms
INFO:/scratch/x3397a09/Amphion/ckpts/vevo/fvq8192/checkpoint/train.log:Building model done in 727.56ms
2026-05-07 13:11:51,130 - /scratch/x3397a09/Amphion/models/base/base_trainer.py[line:190] - INFO: Model parameters: 44.29M
INFO:/scratch/x3397a09/Amphion/ckpts/vevo/fvq8192/checkpoint/train.log:Model parameters: 44.29M
…
